__________________________________________________________________________________________________
Layer (type)                    Output Shape         Param #     Connected to                     
==================================================================================================
input_1 (InputLayer)            (None, 28, 28, 3)    0                                            
__________________________________________________________________________________________________
conv2d_1 (Conv2D)               (None, 28, 28, 32)   896         input_1[0][0]                    
__________________________________________________________________________________________________
activation_1 (Activation)       (None, 28, 28, 32)   0           conv2d_1[0][0]                   
__________________________________________________________________________________________________
batch_normalization_1 (BatchNor (None, 28, 28, 32)   128         activation_1[0][0]               
__________________________________________________________________________________________________
max_pooling2d_1 (MaxPooling2D)  (None, 9, 9, 32)     0           batch_normalization_1[0][0]      
__________________________________________________________________________________________________
dropout_1 (Dropout)             (None, 9, 9, 32)     0           max_pooling2d_1[0][0]            
__________________________________________________________________________________________________
conv2d_2 (Conv2D)               (None, 9, 9, 64)     18496       dropout_1[0][0]                  
__________________________________________________________________________________________________
activation_2 (Activation)       (None, 9, 9, 64)     0           conv2d_2[0][0]                   
__________________________________________________________________________________________________
batch_normalization_2 (BatchNor (None, 9, 9, 64)     256         activation_2[0][0]               
__________________________________________________________________________________________________
conv2d_3 (Conv2D)               (None, 9, 9, 64)     36928       batch_normalization_2[0][0]      
__________________________________________________________________________________________________
conv2d_4 (Conv2D)               (None, 9, 9, 32)     9248        dropout_1[0][0]                  
__________________________________________________________________________________________________
conv2d_5 (Conv2D)               (None, 9, 9, 32)     9248        dropout_1[0][0]                  
__________________________________________________________________________________________________
conv2d_6 (Conv2D)               (None, 9, 9, 32)     9248        dropout_1[0][0]                  
__________________________________________________________________________________________________
activation_3 (Activation)       (None, 9, 9, 64)     0           conv2d_3[0][0]                   
__________________________________________________________________________________________________
activation_4 (Activation)       (None, 9, 9, 32)     0           conv2d_4[0][0]                   
__________________________________________________________________________________________________
activation_5 (Activation)       (None, 9, 9, 32)     0           conv2d_5[0][0]                   
__________________________________________________________________________________________________
activation_6 (Activation)       (None, 9, 9, 32)     0           conv2d_6[0][0]                   
__________________________________________________________________________________________________
batch_normalization_3 (BatchNor (None, 9, 9, 64)     256         activation_3[0][0]               
__________________________________________________________________________________________________
batch_normalization_4 (BatchNor (None, 9, 9, 32)     128         activation_4[0][0]               
__________________________________________________________________________________________________
batch_normalization_5 (BatchNor (None, 9, 9, 32)     128         activation_5[0][0]               
__________________________________________________________________________________________________
batch_normalization_6 (BatchNor (None, 9, 9, 32)     128         activation_6[0][0]               
__________________________________________________________________________________________________
max_pooling2d_2 (MaxPooling2D)  (None, 4, 4, 64)     0           batch_normalization_3[0][0]      
__________________________________________________________________________________________________
max_pooling2d_3 (MaxPooling2D)  (None, 4, 4, 32)     0           batch_normalization_4[0][0]      
__________________________________________________________________________________________________
max_pooling2d_4 (MaxPooling2D)  (None, 4, 4, 32)     0           batch_normalization_5[0][0]      
__________________________________________________________________________________________________
max_pooling2d_5 (MaxPooling2D)  (None, 4, 4, 32)     0           batch_normalization_6[0][0]      
__________________________________________________________________________________________________
dropout_2 (Dropout)             (None, 4, 4, 64)     0           max_pooling2d_2[0][0]            
__________________________________________________________________________________________________
dropout_3 (Dropout)             (None, 4, 4, 32)     0           max_pooling2d_3[0][0]            
__________________________________________________________________________________________________
dropout_4 (Dropout)             (None, 4, 4, 32)     0           max_pooling2d_4[0][0]            
__________________________________________________________________________________________________
dropout_5 (Dropout)             (None, 4, 4, 32)     0           max_pooling2d_5[0][0]            
__________________________________________________________________________________________________
flatten_1 (Flatten)             (None, 1024)         0           dropout_2[0][0]                  
__________________________________________________________________________________________________
flatten_2 (Flatten)             (None, 512)          0           dropout_3[0][0]                  
__________________________________________________________________________________________________
flatten_3 (Flatten)             (None, 512)          0           dropout_4[0][0]                  
__________________________________________________________________________________________________
flatten_4 (Flatten)             (None, 512)          0           dropout_5[0][0]                  
__________________________________________________________________________________________________
dense_1 (Dense)                 (None, 12)           12300       flatten_1[0][0]                  
__________________________________________________________________________________________________
dense_2 (Dense)                 (None, 1)            513         flatten_2[0][0]                  
__________________________________________________________________________________________________
dense_3 (Dense)                 (None, 1)            513         flatten_3[0][0]                  
__________________________________________________________________________________________________
dense_4 (Dense)                 (None, 1)            513         flatten_4[0][0]                  
__________________________________________________________________________________________________
angle_output (Activation)       (None, 12)           0           dense_1[0][0]                    
__________________________________________________________________________________________________
color_output (Activation)       (None, 1)            0           dense_2[0][0]                    
__________________________________________________________________________________________________
length_output (Activation)      (None, 1)            0           dense_3[0][0]                    
__________________________________________________________________________________________________
width_output (Activation)       (None, 1)            0           dense_4[0][0]                    
==================================================================================================
Total params: 98,927
Trainable params: 98,415
Non-trainable params: 512
__________________________________________________________________________________________________
