_________________________________________________________________
Layer (type)                 Output Shape              Param #   
=================================================================
conv2d_1 (Conv2D)            (None, 24, 24, 32)        832       
_________________________________________________________________
activation_1 (Activation)    (None, 24, 24, 32)        0         
_________________________________________________________________
batch_normalization_1 (Batch (None, 24, 24, 32)        128       
_________________________________________________________________
max_pooling2d_1 (MaxPooling2 (None, 12, 12, 32)        0         
_________________________________________________________________
dense_1 (Dense)              (None, 12, 12, 1024)      33792     
_________________________________________________________________
activation_2 (Activation)    (None, 12, 12, 1024)      0         
_________________________________________________________________
flatten_1 (Flatten)          (None, 147456)            0         
_________________________________________________________________
dense_2 (Dense)              (None, 10)                1474570   
=================================================================
Total params: 1,509,322
Trainable params: 1,509,258
Non-trainable params: 64
_________________________________________________________________
