(300, 224, 224, 3) (300, 224, 224, 2)
python 3.5.2 (default, Nov 12 2018, 13:43:14) 
[GCC 5.4.0 20160609]
keras version 2.2.4
tensorflow version 1.13.1
__________________________________________________________________________________________________
Layer (type)                    Output Shape         Param #     Connected to                     
==================================================================================================
input_1 (InputLayer)            (None, 224, 224, 3)  0                                            
__________________________________________________________________________________________________
block1_conv1 (Conv2D)           (None, 224, 224, 64) 1792        input_1[0][0]                    
__________________________________________________________________________________________________
block1_conv2 (Conv2D)           (None, 224, 224, 64) 36928       block1_conv1[0][0]               
__________________________________________________________________________________________________
block1_pool (MaxPooling2D)      (None, 112, 112, 64) 0           block1_conv2[0][0]               
__________________________________________________________________________________________________
block2_conv1 (Conv2D)           (None, 112, 112, 128 73856       block1_pool[0][0]                
__________________________________________________________________________________________________
block2_conv2 (Conv2D)           (None, 112, 112, 128 147584      block2_conv1[0][0]               
__________________________________________________________________________________________________
block2_pool (MaxPooling2D)      (None, 56, 56, 128)  0           block2_conv2[0][0]               
__________________________________________________________________________________________________
block3_conv1 (Conv2D)           (None, 56, 56, 256)  295168      block2_pool[0][0]                
__________________________________________________________________________________________________
block3_conv2 (Conv2D)           (None, 56, 56, 256)  590080      block3_conv1[0][0]               
__________________________________________________________________________________________________
block3_conv3 (Conv2D)           (None, 56, 56, 256)  590080      block3_conv2[0][0]               
__________________________________________________________________________________________________
block3_pool (MaxPooling2D)      (None, 28, 28, 256)  0           block3_conv3[0][0]               
__________________________________________________________________________________________________
block4_conv1 (Conv2D)           (None, 28, 28, 512)  1180160     block3_pool[0][0]                
__________________________________________________________________________________________________
block4_conv2 (Conv2D)           (None, 28, 28, 512)  2359808     block4_conv1[0][0]               
__________________________________________________________________________________________________
block4_conv3 (Conv2D)           (None, 28, 28, 512)  2359808     block4_conv2[0][0]               
__________________________________________________________________________________________________
block4_pool (MaxPooling2D)      (None, 14, 14, 512)  0           block4_conv3[0][0]               
__________________________________________________________________________________________________
block5_conv1 (Conv2D)           (None, 14, 14, 512)  2359808     block4_pool[0][0]                
__________________________________________________________________________________________________
block5_conv2 (Conv2D)           (None, 14, 14, 512)  2359808     block5_conv1[0][0]               
__________________________________________________________________________________________________
block5_conv3 (Conv2D)           (None, 14, 14, 512)  2359808     block5_conv2[0][0]               
__________________________________________________________________________________________________
block5_pool (MaxPooling2D)      (None, 7, 7, 512)    0           block5_conv3[0][0]               
__________________________________________________________________________________________________
conv6 (Conv2D)                  (None, 7, 7, 4096)   102764544   block5_pool[0][0]                
__________________________________________________________________________________________________
pool4_11 (Conv2D)               (None, 14, 14, 2)    1026        block4_pool[0][0]                
__________________________________________________________________________________________________
conv7 (Conv2D)                  (None, 7, 7, 4096)   16781312    conv6[0][0]                      
__________________________________________________________________________________________________
conv2d_transpose_2 (Conv2DTrans (None, 28, 28, 2)    16          pool4_11[0][0]                   
__________________________________________________________________________________________________
pool3_11 (Conv2D)               (None, 28, 28, 2)    514         block3_pool[0][0]                
__________________________________________________________________________________________________
conv2d_transpose_1 (Conv2DTrans (None, 28, 28, 2)    131072      conv7[0][0]                      
__________________________________________________________________________________________________
add (Add)                       (None, 28, 28, 2)    0           conv2d_transpose_2[0][0]         
                                                                 pool3_11[0][0]                   
                                                                 conv2d_transpose_1[0][0]         
__________________________________________________________________________________________________
conv2d_transpose_3 (Conv2DTrans (None, 224, 224, 2)  256         add[0][0]                        
__________________________________________________________________________________________________
activation_1 (Activation)       (None, 224, 224, 2)  0           conv2d_transpose_3[0][0]         
==================================================================================================
Total params: 134,393,428
Trainable params: 134,393,428
Non-trainable params: 0
__________________________________________________________________________________________________
(255, 224, 224, 3) (255, 224, 224, 2)
(45, 224, 224, 3) (45, 224, 224, 2)
Train on 255 samples, validate on 45 samples
…
